artifacts/tiny_char_rnn.pt (torch, 330655 bytes, 7 tensors)

embed.weight f4 [38, 64]
0.36685848 0.31420642 -0.68943214 0.61341685 1.246286 0.3835999 0.19357328 -0.76304203
-1.2907771 0.50431573 -0.76597744 0.24981838 -1.3155295 -1.2030948 0.03538772 -0.88015014
1.8059818 0.5000415 -1.2177833 1.2289666 0.67281145 1.9822505 1.015285 0.35665062
1.3928878 0.2959292 0.6351625 -0.96100795 0.8939298 1.5382723 0.03746324 -0.57503474
0.96170837 -0.7424389 -0.6178587 -1.7128923 0.50579375 1.3363698 0.17836237 0.9629859
1.9142283 -0.7135954 0.8848117 0.28528595 -1.7617964 -0.33321235 0.34225002 -0.10301244
-1.1835527 0.23908722 1.1998436 0.03527985 -0.11631231 1.5560701 -0.8287483 -0.06395196
-2.0335875 -1.149027 -1.1418941 1.0550789 -0.41362676 -0.08873069 0.090032786 -0.82100415
1.8101476 -2.3416028 -0.74444234 0.078424215 0.21554759 1.9870484 1.2014152 1.8587793
0.38146114 -1.1674123 0.010520145 -1.6750911 0.6767842 0.8568542 -1.3050456 1.0114636
0.79769087 -0.7440761 0.33361855 0.15722796 -0.393014 -0.91460747 -1.2286446 0.5469958
0.9415312 -3.539271 -2.4312224 -0.40254936 -0.37761298 -1.4944661 -0.66319907 0.18574741
-1.413949 0.08364671 0.4597916 0.7098536 -0.5910174 -0.39179024 -0.83602965 -1.515405
-1.5537953 0.34151164 -1.0419508 0.8403223 0.28369337 0.74637365 1.7093447 -0.078943394
1.0623827 -1.8632087 -0.5292168 -0.23305997 0.73919684 0.49404776 1.166595 1.2473955
1.2178234 -1.2729627 -1.4683952 -1.3373379 0.46391627 0.6935593 0.072203934 2.0420306
-0.68307376 0.48235145 -1.3622062 -1.9861135 -0.42049947 -0.79203385 -0.16592242 0.5648582
0.62988573 0.12574397 -0.3423763 0.48983088 -0.55951715 0.9743933 0.07248792 0.37163228
0.4731745 0.044515934 2.879113 -0.11116379 -0.7413712 -0.28942692 0.83537024 -0.3794753
-0.09681211 0.6530044 -0.69252187 1.6250261 -0.7480848 0.41542292 0.81055546 0.07295741
-0.35929906 1.1544254 -0.37440535 1.3192474 0.7847839 0.2722658 0.46687 0.21976893
0.49557325 1.5461041 -0.6741027 -0.38247395 1.6298273 0.14527795 -1.2765195 -1.2393734
1.6778196 -0.32004 -1.5251617 0.8009812 0.7055859 0.21019648 -0.08300758 0.22812678
1.0833018 -0.58135533 0.8556061 0.016188242 -0.44870096 -0.973803 0.21433334 0.34717473
3.148146 -0.16016786 -2.1455019 -0.72083694 1.6575506 0.028666072 0.32712525 0.09500872
0.82371753 -0.011829021 0.3621041 0.39298308 -1.6377978 -0.14810726 -0.6132472 -0.5863887
-0.40928873 -1.5571642 1.0250515 2.629993 0.8167701 -0.5221491 0.71268624 -0.283955
-3.9181821 -0.046956934 0.72437835 -0.7618652 0.3103848 0.043874733 -1.4110128 0.19498257
-0.4803042 -3.3131614 -0.32194105 0.9109578 -0.57343644 0.62137693 -0.8095985 -1.2131793
0.17639169 0.7309225 -0.08440329 1.6305209 -2.0168514 0.5981096 -1.2423534 0.24577175
0.8583077 1.4023461 1.1544876 -1.3001319 -0.69285864 0.6828413 1.0404841 -0.6237914
-0.46760365 0.076858036 -1.0870463 -0.3943779 -0.2963032 -1.0959237 -0.45644316 -0.24041772
00000000: e0d4 bb3e aadf a03e a07e 30bf e308 1d3f
00000010: 4d86 9f3f 3567 c43e 1338 463e b956 43bf
00000020: 2f38 a5bf d61a 013f 1917 44bf 64d0 7f3e
00000030: 4563 a8bf 03ff 99bf b7f2 103d 8551 61bf
00000040: 692a e73f b802 003f 53e0 9bbf c74e 9d3f
00000050: 5f3d 2c3f 62ba fd3f dcf4 813f e99a b63e
00000060: 264a b23f 0884 973e 029a 223f 9e04 76bf
00000070: 95d8 643f 1be6 c43f 0e73 193d 7a35 13bf
00000080: 8532 763f 7a10 3ebf fd2b 1ebf 0e40 dbbf
00000090: b37b 013f 2a0e ab3f a0a4 363e 3e86 763f
000000a0: 6f05 f53f 30ae 36bf 0583 623f 0011 923e
000000b0: 8b82 e1bf cf9a aabe 653b af3e 30f8 d2bd
000000c0: a87e 97bf 48d3 743e 7a94 993f 9b81 103d
000000d0: 2635 eebd 4e2d c73f d928 54bf 3ff9 82bd
000000e0: 4c26 02c0 5113 93bf 9629 92bf d30c 873f
000000f0: e3c6 d3be 70b8 b5bd 1c63 b83d 542d 52bf
00000100: ebb2 e73f d2dc 15c0 c693 3ebf e09c a03d
00000110: 82b8 5c3e 9a57 fe3f f9c7 993f 7bec ed3f
00000120: e04e c33e c46d 95bf b05c 2c3c 6369 d6bf
00000130: bb41 2d3f cc5a 5b3f bc0b a7bf a477 813f
00000140: 7835 4c3f c57b 3ebf 0dd0 aa3e 5e00 213e
00000150: 2239 c9be b723 6abf 3a44 9dbf eb07 0c3f
00000160: 3008 713f 6b83 62c0 2699 1bc0 f31a cebe
00000170: 7d56 c1be aa4a bfbf 6ac7 29bf 9234 3e3e
00000180: 48fc b4bf f74e ab3d ce69 eb3e f7b8 353f
00000190: eb4c 17bf bb98 c8be 0a06 56bf cbf8 c1bf
000001a0: c4e2 c6bf 9dda ae3e a55e 85bf 5d1f 573f
000001b0: 4240 913e 5812 3f3f cfcb da3f 13ad a1bd
000001c0: 28fc 873f 9f7d eebf c17a 07bf 46a7 6ebe
000001d0: 013c 3d3f d4f3 fc3e fc52 953f a8aa 9f3f
000001e0: a3e1 9b3f 71f0 a2bf 60f4 bbbf e32d abbf
000001f0: 6f86 ed3e 1a8d 313f a8df 933d a1b0 0240
00000200: ecdd 2ebf c5f6 f63e c65c aebf f838 febf
00000210: b54b d7be bbc2 4abf 91e7 29be 8c9a 103f
00000220: 3140 213f 07c3 003e f24b afbe 1dcb fa3e
00000230: 843c 0fbf d771 793f 8c74 943d 9646 be3e
00000240: ee43 f23e 5756 363d 6343 3840 d7a9 e3bd
00000250: 81ca 3dbf c42f 94be d3da 553f 964a c2be
00000260: 6d45 c6bd 4c2b 273f 1d49 31bf db00 d03f
00000270: 7c82 3fbf 50b2 d43e 9080 4f3f b26a 953d
00000280: 0cf6 b7be 36c4 933f 0fb2 bfbe 19dd a83f
00000290: 99e7 483f 6c66 8b3e 9609 ef3e 1b0b 613e
000002a0: c7bb fd3e bde6 c53f ff91 2cbf a0d3 c3be
000002b0: 2e9e d03f bec3 143e fe64 a3bf caa3 9ebf
000002c0: cbc2 d63f 48dc a3be 8038 c3bf 1b0d 4d3f
000002d0: 47a1 343f bf3d 573e e1ff a9bd 119a 693e
000002e0: a2a9 8a3f b4d3 14bf 0009 5b3f 349d 843c
000002f0: 22bc e5be 274b 79bf 337a 5b3e e3c0 b13e
00000300: 397b 4940 0b03 24be e74f 09c0 c588 38bf
00000310: 9e2a d43f 1cd5 ea3c f67c a73e ef93 c23d
00000320: 27df 523f 83ce 41bc b565 b93e 1435 c93e
00000330: 5ca3 d1bf 6ea9 17be c5fd 1cbf 921d 16bf
00000340: 4b8e d1be 2851 c7bf e334 833f ce51 2840
00000350: d817 513f 90ab 05bf 9b72 363f 8d62 91be
00000360: 7fc3 7ac0 ea55 40bd dc70 393f 9909 43bf
00000370: c2ea 9e3e feb5 333d 119c b4bf 83a9 473e
00000380: 6fea f5be d60a 54c0 75d5 a4be 8834 693f
00000390: bbcc 12bf 8f12 1f3f d941 4fbf 7649 9bbf
000003a0: 06a0 343e bd1d 3b3f a2db acbd e9b4 d03f
000003b0: 1814 01c0 b61d 193f 7005 9fbf 97ab 7b3e
000003c0: 0eba 5b3f 1480 b33f 40c6 933f b96a a6bf
000003d0: 2f5f 31bf b0ce 2e3f 952e 853f cbb0 1fbf
000003e0: bf69 efbe bf67 9d3d 5524 8bbf e6eb c9be
000003f0: 0eb5 97be 3a47 8cbf ebb2 e9be 1030 76be

rnn.weight_ih_l0 f4 [384, 64]
-0.07042903 -0.08291415 0.042086434 0.05170587 -0.020901695 0.104517646 0.072720036 0.025463264
0.0043164017 -0.07774948 0.0013992251 0.007913317 0.17160167 0.06500146 -0.12097227 0.010626227
0.058865216 -0.03771619 0.06672472 0.10033695 0.15139772 0.05913854 -0.036899857 -0.06374054
0.17644998 -0.056982636 -0.11962767 0.08433397 0.08148945 0.018992217 -0.13638765 -0.03369171
-0.020875879 0.07356224 0.010383852 -0.046675794 0.053197503 0.0014801488 -0.09188982 -0.09191223
-0.106801756 -0.029158285 0.064293556 -0.0069459043 -0.04778534 -0.038848817 0.015545438 0.043770503
-0.03242909 -0.007475183 -0.101349905 0.051388726 0.08936698 0.1150085 -0.047214985 0.08501037
-0.04924821 -0.043454025 -0.011479159 -0.0081461165 0.072396174 -0.072066344 -0.12309304 0.031399462
0.0075424784 -0.00081644865 0.08314282 -0.19723205 -0.13792716 0.00029307586 -0.008406901 0.15725428
0.19580866 0.006029536 0.09679553 -0.11401604 0.0397633 -0.16990185 -0.22129005 0.059942078
0.05962977 -0.03693495 0.14013964 0.07824866 0.03858433 -0.092364125 -0.05086944 -0.010847801
0.13275756 -0.09404578 -0.0954876 0.07754502 0.14163499 -0.0310446 -0.03638008 -0.047185693
-0.05975187 0.034618378 0.090444036 0.025541293 0.13996078 0.13192971 -0.010750844 0.115630805
-0.15775514 0.016968336 0.16315517 0.046752717 0.06836349 -0.059035618 0.22739732 0.09965133
-0.055629257 -0.0019065514 0.03554828 0.09544313 0.011070924 0.053332906 -0.039739292 0.12592188
-0.16018641 0.109902255 -0.036747705 -0.036249097 -0.10788538 -0.04389066 0.12905928 0.03936852
-0.0407488 -0.0747048 0.030431274 0.033037275 -0.06538039 0.18867883 0.11220558 0.047077212
0.010397497 -0.062495034 -0.07426983 0.020324562 0.093826465 -0.017325379 -0.12979168 -0.01921472
0.19235255 0.08688666 -0.06820086 0.12709337 0.030047249 0.045067944 0.08222406 -0.013937505
0.14494094 -0.08867161 -0.10881797 -0.1706795 0.0015308554 -0.040822215 -0.04353429 -0.010659034
0.14199723 -0.06367724 0.11180708 -0.105044596 -0.09192823 -0.021643091 0.051792126 -0.12888236
-0.038162038 0.07379974 0.007264598 0.030906467 0.010481409 0.16434047 0.175678 -0.096444935
-0.08274382 -0.09381961 0.091081694 0.007662125 0.101921126 0.010249121 0.03238342 -0.030565182
-0.071027 0.01899319 -0.06162121 -0.18074216 0.11438101 -0.0032970482 0.035292663 0.06862155
-0.03147009 -0.14591181 -0.031176362 0.03325979 -0.07725765 0.041609995 -0.027434146 0.055297766
0.0113648 0.005102528 0.17662352 -0.11940736 -0.014105093 0.08861988 0.04330137 -0.06668141
0.15532 -0.20679957 0.0075635207 0.12451396 -0.052198168 0.06961792 0.085764065 0.010515219
-0.021155672 0.048520558 -0.069454364 -0.103788376 0.028145729 -0.13863377 -0.1685429 0.03688009
-0.02528807 -0.10286669 0.05511946 0.030105066 0.03356096 0.02083814 -0.08985084 -0.08809438
0.08967853 0.018353404 -0.053091437 0.036176153 0.08267334 0.12443914 0.11882275 0.028819669
0.16280538 -0.029763093 0.1171242 -0.11702031 0.14807181 0.1032203 0.01646803 -0.09917675
-0.14853595 -0.05540154 -0.08078406 -0.059511047 0.0765673 -0.07815952 -0.17071348 0.08165598
00000000: 183d 90bd e5ce a9bd d362 2c3d 89c9 533d
00000010: 083a abbc 590d d63d 3eee 943d 5698 d03c
00000020: 9a70 8d3b 1f3b 9fbd 3466 b73a dba6 013c
00000030: 59b8 2f3e 7c1f 853d 4fc0 f7bd a019 2e3c
00000040: a71c 713d 4b7c 1abd f8a6 883d 757d cd3d
00000050: 0108 1b3e 413b 723d 4e24 17bd 668a 82bd
00000060: 4eaf 343e a066 69bd 5aff f4bd 4ab7 ac3d
00000070: f1e3 a63d 9195 9b3c 34a9 0bbe 5200 0abd
00000080: e403 abbc cda7 963d 0821 2a3c 1e2f 3fbd
00000090: a0e5 593d 8d01 c23a bb30 bcbd 7b3c bcbd
000000a0: e1ba dabd 5bdd eebc 57ac 833d 789a e3bb
000000b0: 90ba 43bd f01f 1fbd 4bb2 7e3c b348 333d
000000c0: 5ed4 04bd 61f2 f4bb 8a90 cfbd fc7c 523d
000000d0: 0906 b73d 9489 eb3d 8064 41bd eb19 ae3d
000000e0: 7eb8 49bd d9fc 31bd 1513 3cbc 4a77 05bc
000000f0: 7244 943d 8597 93bd 3418 fcbd b99c 003d
00000100: e526 f73b f106 56ba c846 aa3d 33f7 49be
00000110: c73c 0dbe faa7 9939 19bd 09bc 4407 213e
00000120: 1182 483e 6a93 c53b bc3c c63d 3e81 e9bd
00000130: d8de 223d c0fa 2dbe dc99 62be d385 753d
00000140: 593e 743d 1a49 17bd c480 0f3e d540 a03d
00000150: 9a0a 1e3d 6729 bdbd 795c 50bd faba 31bc
00000160: 99f1 073e 139b c0bd 018f c3bd eccf 9e3d
00000170: c308 113e 3f51 febc 4703 15bd c945 41bd
00000180: 60be 74bd 00cc 0d3d b93a b93d f93b d13c
00000190: e151 0f3e 9518 073e 4f24 30bc d8cf ec3d
000001a0: 908a 21be 2e01 8b3c 2612 273e c77f 3f3d
000001b0: 2802 8c3d 55cf 71bd d8da 683e ff15 cc3d
000001c0: 81db 63bd 40e5 f9ba 139b 113d b077 c33d
000001d0: d262 353c 9b73 5a3d abc5 22bd aaf1 003e
000001e0: e807 24be 6f14 e13d c384 16bd ef79 14bd
000001f0: 03f3 dcbd b1c6 33bd 1e28 043e e340 213d
00000200: 37e8 26bd d5fe 98bd 024b f93c 1852 073d
00000210: 27e6 85bd 0635 413e 0acc e53d 09d4 403d
00000220: 435a 2a3c cbfa 7fbd c81a 98bd b27f a63c
00000230: 1728 c03d f4ed 8dbc 1ce8 04be 3068 9dbc
00000240: 11f8 443e a2f1 b13d e4ac 8bbd c424 023e
00000250: a625 f63c 2a99 383d 1765 a83d 225a 64bc
00000260: 666b 143e 7699 b5bd f5db debd 9bc6 2ebe
00000270: fca6 c83a 3235 27bd 0351 32bd 3ba3 2ebc
00000280: b967 113e 3669 82bd 1cfb e43d 9f21 d7bd
00000290: de44 bcbd da4c b1bc fb23 543d bdf9 03be
000002a0: cc4f 1cbd 5124 973d dd0b ee3b 8f2f fd3c
000002b0: 37ba 2b3c de48 283e efe4 333e ec84 c5bd
000002c0: 9875 a9bd 7f24 c0bd 0a89 ba3d 9012 fb3b
000002d0: 06bc d03d eeeb 273c 7aa4 043d d563 fabc
000002e0: 9b76 91bd 9b97 9b3c 8666 7cbd 7914 39be
000002f0: 9740 ea3d 4a13 58bb 0a8f 103d 7589 8c3d
00000300: c8e6 00bd e869 15be 9265 ffbc 6b3b 083d
00000310: 4239 9ebd 3e6f 2a3d 93bd e0bc e97f 623d
00000320: 6d33 3a3c 1b33 a73b ccdc 343e d98b f4bd
00000330: 0c19 67bc 577e b53d c75c 313d 4390 88bd
00000340: 350c 1f3e 44c3 53be 69d7 f73b 2d01 ff3d
00000350: bfcd 55bd d793 8e3d 12a5 af3d 0648 2c3c
00000360: a94e adbc 7ebd 463d 173e 8ebd 008f d4bd
00000370: df91 e63c 03f6 0dbe 8396 2cbe 940f 173d
00000380: ed28 cfbc c5ab d2bd f1c4 613d e69e f63c
00000390: 3877 093d bfb4 aa3c b803 b8bd d46a b4bd
000003a0: 61a9 b73d e159 963c 6876 59bd 722d 143d
000003b0: a450 a93d f3d9 fe3d 5859 f33d 3a17 ec3c
000003c0: 74b6 263e bbd1 f3bc d0de ef3d 58a8 efbd
000003d0: 23a0 173e 2a65 d33d f6e7 863c 2e1d cbbd
000003e0: cf19 18be baec 62bd 1d72 a5bd dbc1 73bd
000003f0: 51cf 9c3d 1912 a0bd 84cf 2ebe 403b a73d

rnn.weight_hh_l0 f4 [384, 128]
0.11349246 0.010350815 -0.13386486 0.119884245 -0.19962865 -0.05071318 0.03632702 -0.0021073406
-0.09919137 0.069159016 0.1123646 -0.16408636 0.10229937 0.082642466 -0.021994874 0.057437953
-0.0015713141 0.16262306 0.0068605533 0.0243619 -0.11250636 0.05592055 -0.11229878 -0.04077535
0.0023691829 0.11931572 0.07610704 -0.020156767 0.07763281 0.07462607 0.025501737 0.016358977
-0.09003572 -0.084719375 0.07989948 0.05560398 -0.02214674 0.038357515 -0.10428809 -0.032752406
0.07176175 0.106004514 -0.012058047 -0.053898867 0.09900325 -0.06423547 -0.05895867 0.15067323
-0.004212915 0.10071373 -0.056881484 -0.019347299 -0.008582022 0.044898566 -0.07283497 0.10539161
0.16917735 -0.03528343 -0.07530756 -0.04372999 -0.07940265 0.16164824 -0.047878835 0.011667739
-0.041408163 0.0835579 0.057233747 0.117220126 0.032094985 -0.03742174 0.059832152 0.015626777
0.082307026 -0.11019087 -0.07705856 -0.09489033 -0.123010494 0.038784586 0.05558275 0.11907066
-0.08657337 -0.09985037 -0.14309236 0.07364064 -0.001142685 -0.065528974 -0.06449215 -0.024907744
0.062163915 -0.097295396 0.040340934 -0.099642225 -0.081694916 -0.02630893 0.17705926 -0.027082644
0.15428464 0.01576229 -0.10644456 -0.0068596452 -0.112650864 0.032158624 -0.063616164 -0.008658385
-0.06771206 0.0029790576 0.053606175 0.08536041 0.011316657 0.028376855 -0.13102591 -0.056209512
0.01995252 0.05627288 0.03506729 -0.011204403 -0.09850801 -0.09042719 0.05375387 -0.029002097
0.043286644 -0.07762164 0.07823098 0.04614763 -0.09761981 0.06973742 0.04244958 -0.07408483
-0.05337585 0.054957103 0.016302826 0.10311672 -0.077317886 -0.18628122 -0.22326154 -0.07548171
0.137095 0.022300027 0.016008269 -0.08442775 0.049583655 -0.077862926 -0.050620895 -0.07780022
-0.074344054 0.13791187 0.057755735 -0.010244008 -0.022069985 -0.0023442379 0.13329484 -0.18210897
-0.07042434 -0.048347488 0.079566255 0.0710109 0.08856842 -0.07776664 -0.15104169 0.17801636
-0.04046598 -0.008413993 -0.049628876 -0.06382437 -0.06568777 -0.037762918 -0.004963929 0.0048525454
0.1265374 0.08737383 -0.089217775 0.041889098 -0.008193872 0.115610786 -0.022462733 -0.08325887
0.080592506 -0.030457798 0.00968278 0.13787946 0.10048681 -0.12825869 -0.035777457 0.088883944
0.029360492 0.029924719 -0.13674614 0.11048715 -0.031245431 0.0842198 -0.062390286 0.05633855
-0.044879988 -0.011100445 -0.039688673 0.13391665 0.032189775 -0.057995196 -0.114135325 0.10803749
0.16618136 -0.03233065 -0.0816869 -0.12633896 0.006742583 0.09060172 -0.008548602 -0.021009412
-0.20135626 -0.052056782 -0.054152526 -0.03629706 -0.0927252 0.059770335 -0.14501053 0.0124600725
0.006960359 -0.072778195 -0.08935863 0.010995961 -0.1284457 -0.010548631 -0.109938055 0.08963757
-0.001956181 -0.12946504 0.04699892 0.06620205 0.004371788 0.052873127 0.08872702 -0.13154748
-0.073516935 0.031055393 -0.18280767 0.10361571 -0.07191178 -0.09868739 0.04909637 0.019325795
-0.013414487 0.028949903 0.09990608 -0.009941004 0.107930675 -0.039624467 0.011509428 0.05120664
0.02412922 0.06558966 -0.12278513 -0.121959776 0.104213715 0.109013215 0.058428995 0.1013358
00000000: bc6e e83d 7796 293c df13 09be df85 f53d
00000010: 746b 4cbe a0b8 4fbd a4cb 143d 4f1b 0abb
00000020: d824 cbbd 3ea3 8d3d 691f e63d 4106 28be
00000030: 5582 d13d 7440 a93d 982e b4bc 0f44 6b3d
00000040: 8df4 cdba a986 263e 7ece e03b 9b92 c73c
00000050: bc69 e6bd f20c 653d e7fc e5bd 0e04 27bd
00000060: 4b44 1b3b cd5b f43d 02de 9b3d ce1f a5bc
00000070: f3fd 9e3d 8ed5 983d 05e9 d03c 4303 863c
00000080: a664 b8bd 5a81 adbd 57a2 a33d 00c1 633d
00000090: 156d b5bc c51c 1d3d fe94 d5bd 6327 06bd
000000a0: d3f7 923d e518 d93d 1d8f 45bc 0fc5 5cbd
000000b0: 37c2 ca3d e38d 83bd a57e 71bd 154a 1a3e
000000c0: 7e0c 8abb 0043 ce3d 8ffc 68bd 3a7e 9ebc
000000d0: 9c9b 0cbc 8fe7 373d 802a 95bd 8ed7 d73d
000000e0: d43c 2d3e 5c85 10bd da3a 9abd 381e 33bd
000000f0: db9d a2bd 1e87 253e 991c 44bd 0b2a 3f3c
00000100: 9b9b 29bd 6720 ab3d ef6d 6a3d 1b11 f03d
00000110: 0876 033d 8a47 19bd 8f12 753d ba03 803c
00000120: 9690 a83d c0ab e1bd e1d0 9dbd dd55 c2bd
00000130: edec fbbd 96dc 1e3d bdaa 633d 51db f33d
00000140: 614d b1bd 5a7e ccbd ce86 12be e7d0 963d
00000150: 25c6 95ba 0e34 86bd 7614 84bd 530b ccbc
00000160: 979f 7e3d cf42 c7bd 893c 253d 3911 ccbd
00000170: aa4f a7bd d385 d7bc 064f 353e 6cdc ddbc
00000180: cbfc 1d3e eb1f 813c 9bff d9bd e0c6 e0bb
00000190: 7fb5 e6bd c3b8 033d 3149 82bd e6db 0dbc
000001a0: 9fac 8abd 4b3c 433b 2692 5b3d 70d1 ae3d
000001b0: 8069 393c 9476 e83c a82b 06be f23b 66bd
000001c0: 7873 a33c 647e 663d b8a2 0f3d ac92 37bc
000001d0: 91be c9bd e431 b9bd 052d 5c3d ce95 edbc
000001e0: 564d 313d 18f8 9ebd 9037 a03d 4c05 3d3d
000001f0: e5ec c7bd 7ed2 8e3d 9cdf 2d3d cab9 97bd
00000200: a3a0 5abd b31a 613d 818d 853c dc2e d33d
00000210: d758 9ebd 81c0 3ebe ac9e 64be 2896 9abd
00000220: a262 0c3e 8cae b63c c623 833c 75e8 acbd
00000230: 3b18 4b3d 9976 9fbd db57 4fbd b955 9fbd
00000240: b241 98bd c538 0d3e 4791 6c3d 7cd6 27bc
00000250: 1dcc b4bc c9a1 19bb 717e 083e c67a 3abe
00000260: a33a 90bd 0408 46bd a2f3 a23d 2a6e 913d
00000270: 5c63 b53d 1e44 9fbd acaa 1abe ec49 363e
00000280: a8bf 25bd d8da 09bc a647 4bbd 5ab6 82bd
00000290: 4f87 86bd 4aad 1abd 74a8 a2bb 1a02 9f3b
000002a0: 0593 013e 0df1 b23d cfb7 b6bd e793 2b3d
000002b0: 973f 06bc 59c5 ec3d c403 b8bc a083 aabd
000002c0: af0d a53d a282 f9bc 86a4 1e3c 4630 0d3e
000002d0: 07cc cd3d 3f56 03be 628b 12bd c908 b63d
000002e0: 6a85 f03c af24 f53c 2e07 0cbe 1647 e23d
000002f0: 6bf6 ffbc 6e7b ac3d f58c 7fbd 40c3 663d
00000300: 14d4 37bd a4de 35bc 9790 22bd 7221 093e
00000310: 6dd9 033d 5f8c 6dbd c8bf e9bd c242 dd3d
00000320: 722b 2a3e 256d 04bd 764b a7bd 005f 01be
00000330: e3f0 dc3b 658d b93d 700f 0cbc ee1b acbc
00000340: 5630 4ebe 7e39 55bd 0acf 5dbd 3aac 14bd
00000350: b6e6 bdbd bdd1 743d a47d 14be 5525 4c3c
00000360: b913 e43b bc0c 95bd a801 b7bd 6728 343c
00000370: 4587 03be 2ad4 2cbc 3427 e1bd e793 b73d
00000380: 4533 00bb 7c92 04be f181 403d f194 873d
00000390: 3741 8f3b 7e91 583d 83b6 b53d 62b4 06be
000003a0: 0c90 96bd e167 fe3c ef31 3bbe 7934 d43d
000003b0: 7c46 93bd 9d1c cabd 4619 493d 2151 9e3c
000003c0: 70c8 5bbc 5928 ed3c 8f9b cc3d 98df 22bc
000003d0: c20a dd3d 444d 22bd 0a92 3c3c 0ebe 513d
000003e0: a4aa c53c df53 863d c576 fbbd 0cc6 f9bd
000003f0: 006e d53d 5242 df3d 3e53 6f3d 2589 cf3d

rnn.bias_ih_l0 f4 [384]
0.04575026 0.03949509 0.035876386 0.11559406 0.007433824 0.105392635 0.16179141 0.03411325
0.122728944 0.052752566 0.09552422 0.0535608 0.062261593 0.021882879 0.1329263 0.07066281
0.13902177 0.028799875 0.072030924 -0.0062448415 0.069278136 0.029954778 0.061937112 0.1368872
0.10490467 0.021837171 0.08160462 0.11104906 0.047336716 -0.057707038 0.15145817 0.18247387
0.012954953 0.10774923 0.025484897 0.10090058 0.105841495 0.10892392 0.02415415 0.06679987
0.061105546 0.035067752 0.0077452906 0.12551095 0.12664722 0.08339376 0.11981311 0.08169138
0.063535176 0.059696183 0.14676562 0.06972383 0.017593857 0.13663405 0.072403215 0.09056392
0.042249847 0.043868646 0.021745784 0.1350343 0.05585817 -0.0013878571 0.124479435 0.14497732
-0.0011441634 0.0045008813 0.0630591 0.015603626 0.17345597 0.10598213 0.0014886722 0.02010861
0.01142635 -0.02618142 0.0037787594 0.05214515 0.0677092 0.09389923 0.010160403 -0.03048411
0.13220811 0.054399855 0.071156435 0.112255044 0.06895425 0.14355728 0.122747675 0.13511553
0.13915208 0.010850259 -0.0006345403 0.10997287 0.060787294 0.008924978 0.077001 0.13848343
0.025151953 0.007296716 0.08920094 0.10008364 0.084758125 0.0027180305 0.04194847 0.15096833
0.12751211 0.15608391 0.047706213 -0.00532255 0.12054435 0.07924156 0.07609293 0.07675778
0.14205265 -0.0018543056 -0.0065919273 0.04523248 0.15994568 0.037332837 0.14197169 0.0938002
0.03572184 0.09345718 0.06785036 0.09298752 0.10178218 0.11217763 0.17804146 0.05145758
0.031368416 0.008023167 -0.19571699 -0.1372513 -0.18280607 -0.20700328 -0.19884016 -0.0075667417
-0.091482386 -0.06484945 -0.12622972 -0.17429113 -0.18357047 -0.031112297 -0.18995102 -0.17434454
-0.1402523 -0.10357817 -0.038799774 -0.15789948 -0.09559183 -0.18790023 -0.20033354 -0.1681673
-0.1709045 -0.1063741 -0.04241713 -0.16702135 -0.11781967 -0.079625666 -0.16521458 -0.081805505
-0.22935477 -0.14104512 -0.12448012 -0.02444234 -0.04454804 -0.14230397 -0.14342524 -0.07864033
-0.1048503 -0.081887305 -0.109892614 -0.21119717 -0.20257482 -0.218188 -0.08335015 -0.13233124
-0.08570432 -0.100891486 -0.10963708 -0.23000695 -0.19666065 -0.15548737 -0.06878582 -0.20317769
-0.056356322 -0.08392239 -0.18497929 -0.09699865 -0.11538026 -0.17049477 -0.058008663 -0.2268465
-0.046794236 -0.032566372 -0.12217351 -0.089700945 -0.1457189 -0.06512896 -0.13447718 -0.11598044
-0.08707566 -0.0012957706 -0.12151417 -0.17120247 -0.045590553 -0.2140067 -0.17033188 0.0026330089
-0.025611088 0.008130259 -0.09384273 -0.15130061 -0.10037198 -0.14221005 -0.15173893 -0.0537437
-0.20722613 -0.17468527 -0.099640846 -0.12598594 -0.07162225 -0.16368641 -0.034636926 -0.18788393
-0.12255124 -0.019417876 -0.10269116 -0.21784127 -0.08868547 -0.077827126 -0.08047091 -0.2007442
-0.17217952 -0.18406187 -0.19065036 -0.104435705 -0.07077384 -0.07743494 -0.13739775 -0.045130342
-0.2298952 -0.059382383 -0.055001527 -0.17484924 -0.09823879 -0.11833461 -0.12871553 -0.16366747
-0.093540445 -0.17369011 -0.22522843 -0.1513633 -0.13534148 -0.07154825 -0.025155237 -0.037722483
00000000: a064 3b3d 9ac5 213d 1ef3 123d 94bc ec3d
00000010: 6f97 f33b 18d8 d73d a6ac 253e 56ba 0b3d
00000020: 5059 fb3d 1313 583d 34a2 c33d 9262 5b3d
00000030: 0306 7f3d b943 b33c d51d 083e aab7 903d
00000040: b95b 0e3e b7ed eb3c f384 933d 87a1 ccbb
00000050: b2e1 8d3d b963 f53c c5b1 7d3d 282c 0c3e
00000060: 42d8 d63d dee3 b23c 5320 a73d b16d e33d
00000070: 25e4 413d 375e 6cbd da17 1b3e 6eda 3a3e
00000080: 0341 543c a1ab dc3d b4c5 d03c f7a4 ce3d
00000090: 6dc3 d83d 8113 df3d edde c53c 5fce 883d
000000a0: cf49 7a3d 34a3 0f3d 35cc fd3b f185 003e
000000b0: cfaf 013e 59ca aa3d 9360 f53d cf4d a73d
000000c0: bb1e 823d fc83 743d ba49 163e 5ecb 8e3d
000000d0: fe20 903c cce9 0b3e 2348 943d 9479 b93d
000000e0: 2d0e 2d3d 9caf 333d 3724 b23c 6e46 0a3e
000000f0: 89cb 643d c2e8 b5ba 13ef fe3d ef74 143e
00000100: c1f7 95ba 217c 933b 2125 813d 5aa6 7f3c
00000110: 719e 313e 290d d93d 8d1f c33a d0ba a43c
00000120: 9635 3b3c 6b7a d6bc 10a5 773b 2796 553d
00000130: 1fab 8a3d 3d4e c03d d277 263c d0b9 f9bc
00000140: 9061 073e 62d2 5e3d 77ba 913d f9e5 e53d
00000150: e337 8d3d ae00 133e 2263 fb3d ba5b 0a3e
00000160: e27d 0e3e 49c5 313c 4757 26ba 7539 e13d
00000170: 19fc 783d 123a 123c b3b2 9d3d 9ace 0d3e
00000180: 780b ce3c 4a19 ef3b fcae b63d a7f8 cc3d
00000190: ab95 ad3d fc20 323b 29d2 2b3d 7197 1a3e
000001a0: 8992 023e 76d4 1f3e 9767 433d c968 aebb
000001b0: f5df f63d 6649 a23d 9cd6 9b3d 2f33 9d3d
000001c0: 4076 113e 2c0c f3ba 1801 d8bb b145 393d
000001d0: cdc8 233e 51ea 183d 0761 113e 521a c03d
000001e0: 1051 123d 7a66 bf3d 21f5 8a3d 3e70 be3d
000001f0: 2d73 d03d 63bd e53d 8050 363e 2fc5 523d
00000200: 2b7c 003d 9a73 033c 096a 48be 9b8b 0cbe
00000210: 8431 3bbe abf8 53be c19c 4bbe 6ef2 f7bb
00000220: 1e5b bbbd cacf 84bd 5d42 01be 6079 32be
00000230: e6f9 3bbe 37df febc 8582 42be 6087 32be
00000240: 4d9e 0fbe cb20 d4bd 83ec 1ebd 67b0 21be
00000250: a6c5 c3bd eb68 40be 3c24 4dbe 0c34 2cbe
00000260: 9701 2fbe aada d9bd 96bd 2dbd a507 2bbe
00000270: 704b f1bd c812 a3bd 032e 29be a589 a7bd
00000280: fadb 6abe 226e 10be 6fef febd 4d3b c8bc
00000290: 0178 36bd 22b8 11be 11de 12be 2e0e a1bd
000002a0: c1bb d6bd 88b4 a7bd 610f e1bd 1244 58be
000002b0: c66f 4fbe ad6c 5fbe 7cb3 aabd d781 07be
000002c0: bf85 afbd 32a0 cebd 6889 e0bd f186 6bbe
000002d0: 6961 49be 1538 1fbe 94df 8cbd d00d 50be
000002e0: e3d5 66bd 81df abbd 366b 3dbe 3aa7 c6bd
000002f0: 7c4c ecbd 2e96 2ebe 7e9a 6dbd 734a 68be
00000300: 50ab 3fbd 5164 05bd 1b36 fabd 21b5 b7bd
00000310: 5637 15be 5562 85bd 63b4 09be 2787 edbd
00000320: b954 b2bd d9d6 a9ba 6cdc f8bd b34f 2fbe
00000330: 29bd 3abd 9324 5bbe 7b6b 2ebe 8f8e 2c3b
00000340: 58ce d1bc c734 053c 9e30 c0bd 8cee 1abe
00000350: d38f cdbd 839f 11be 7361 1bbe 5b22 5cbd
00000360: 1633 54be b2e0 32be 8010 ccbd 7502 01be
00000370: b0ae 92bd 699d 27be 73df 0dbd a564 40be
00000380: 25fc fabd 3d12 9fbc be4f d2bd c811 5fbe
00000390: baa0 b5bd d463 9fbd efcd a4bd e38f 4dbe
000003a0: d44f 30be b77a 3cbe d939 43be 63e2 d5bd
000003b0: e0f1 90bd 3696 9ebd ffb1 0cbe 98da 38bd
000003c0: a669 6bbe f13a 73bd 4849 61bd ae0b 33be
000003d0: 6b31 c9bd 6a59 f2bd 01ce 03be 7298 27be
000003e0: 2292 bfbd d2db 31be 48a2 66be fbfe 1abe
000003f0: f596 0abe e487 92bd 5b12 cebc e482 1abd

rnn.bias_hh_l0 f4 [384]
0.11745842 0.15635803 0.036546703 0.04981747 0.17549275 0.066323616 0.024828073 0.11594174
0.10303944 0.081757985 0.023900274 -0.0036327364 0.1188139 0.15709218 0.004833537 0.068048455
0.11650498 0.03069689 0.025612788 0.0023525483 0.15910535 0.1544844 0.03462893 0.0267702
0.01378745 0.09343596 0.12078882 0.13722362 0.14238334 -0.046168983 0.05490142 0.17728963
0.12604114 0.0535902 0.10538104 0.039836366 0.055555392 0.024717206 0.001179076 0.1642475
-0.027760923 0.07664983 -0.024197353 0.14238498 0.13510486 0.088044986 0.01899049 0.09581577
0.012817507 -0.009573819 0.07037535 0.12511104 0.12992969 0.094346106 0.095820166 0.15775251
0.1257153 0.10787115 0.05193996 0.13306521 -0.0034876089 0.0014624433 0.045355752 0.08396768
0.057651896 0.14070192 0.087044 0.10834681 0.08424204 0.07112638 0.08105451 0.14039169
-0.02489331 0.07013777 0.024561312 0.004742591 0.1066514 0.15343939 0.09629553 0.10709105
0.11918461 0.042326905 0.1380914 0.15946594 0.008251992 0.12044869 0.009323458 0.029835178
-0.013185729 0.009892907 0.02329993 0.09951037 0.036457714 0.1008155 0.02155277 0.13035053
0.08640192 0.15978335 0.07737444 -0.0017221197 0.042577665 0.058170035 -0.02251563 0.13728951
0.056219585 0.15839593 0.06926591 0.056928217 0.1091613 0.13090794 0.09611547 0.21680316
0.092560805 0.092905775 0.08200867 0.07918556 0.018333476 0.004865339 0.17212561 -0.011408378
0.0650353 0.042438727 0.10743612 0.08153307 -0.0029427372 0.078207865 0.11971386 0.13372938
-0.04649015 0.0037910272 -0.098761946 -0.1642461 -0.16403599 -0.2157804 -0.13204676 -0.012139177
-0.11768918 -0.1264445 -0.11416282 -0.14225131 -0.16559348 -0.08071277 -0.12140776 -0.16945973
-0.23422496 -0.09190075 -0.074566744 -0.180678 -0.114008434 -0.10580067 -0.08515904 -0.07902738
-0.052634314 -0.18786275 -0.074527815 -0.060985997 -0.21018076 -0.071300715 -0.14274617 -0.124242835
-0.11933504 -0.23866223 -0.015754577 -0.037462484 -0.16992742 -0.12056694 -0.04528196 -0.12867999
-0.13592516 -0.15893632 -0.18894145 -0.10470338 -0.07019533 -0.06284172 -0.18653299 -0.099425204
-0.18685123 0.04147085 0.0036372568 -0.12736131 -0.10183919 -0.027813554 -0.07913066 -0.13996924
-0.17476898 -0.03300162 -0.06483561 -0.06443325 -0.076358795 -0.05259194 -0.14320701 -0.22871447
-0.14926913 -0.013861744 -0.19280699 -0.22968791 -0.11284562 -0.035858072 -0.20455155 -0.12492934
-0.087368034 -0.113192275 -0.21963473 -0.13721412 -0.14420724 -0.10026494 -0.15920898 -0.1505673
-0.046626676 -0.08328048 -0.013402453 -0.13615865 -0.122630194 -0.1899312 -0.047709845 -0.05849841
-0.22315794 -0.20372498 -0.1720235 -0.08912627 -0.065201215 -0.16832824 -0.07224597 -0.18167716
-0.18981217 -0.08846513 -0.143753 -0.20074224 -0.11832421 -0.12452195 -0.13285756 -0.22529231
-0.17234765 -0.21136533 -0.18470995 -0.1799546 -0.039903466 -0.11397285 -0.13797021 -0.04117952
-0.13517562 -0.2072844 -0.12060332 -0.22259293 -0.1163287 -0.17942145 -0.18465218 -0.081031375
-0.14135438 -0.16325656 -0.22904219 -0.21528855 -0.07284412 -0.08299664 0.008785725 -0.10463359
00000000: 0a8e f03d 521c 203e ffb1 153d 670d 4c3d
00000010: 5fb4 333e add4 873d 3e64 cb3c dd72 ed3d
00000020: 5806 d33d bb70 a73d 82ca c33c 3413 6ebb
00000030: b454 f33d c6dc 203e a662 9e3b fd5c 8b3d
00000040: 2a9a ee3d 0b78 fb3c e9d1 d13c 362d 1a3b
00000050: 83ec 223e 2931 1e3e 11d7 0d3d 2e4d db3c
00000060: c2e4 613c 5a5b bf3d 2160 f73d 5984 0c3e
00000070: f0cc 113e b01b 3dbd 50e0 603d 6a8b 353e
00000080: ee10 013e 6681 5b3d 04d2 d73d 752b 233d
00000090: 0d8e 633d bd7b ca3c 3a8b 9a3a 7f30 283e
000000a0: e06a e3bc 96fa 9c3d 8739 c6bc 5ecd 113e
000000b0: ee58 0a3e ee50 b43d f291 9b3c 0f3b c43d
000000c0: 8500 523c 82db 1cbc f420 903d 1c1d 003e
000000d0: 4a0c 053e 8838 c13d 5d3d c43d e089 213e
000000e0: 83bb 003e 8deb dc3d ffbe 543d 3f42 083e
000000f0: 5e90 64bb 74af bf3a f4c6 393d 3ff7 ab3d
00000100: 6524 6c3d 2a14 103e 2044 b23d efe4 dd3d
00000110: 1787 ac3d b5aa 913d e8ff a53d d7c2 0f3e
00000120: 0eed cbbc 64a4 8f3d ce34 c93c bd67 9b3b
00000130: 0d6c da3d 371f 1d3e 9736 c53d 8d52 db3d
00000140: 1017 f43d fa5e 2d3d d567 0d3e 0a4b 233e
00000150: 5d33 073c cead f63d 6bc1 183c e768 f43c
00000160: f508 58bc dc15 223c 7fdf be3c 18cc cb3d
00000170: af54 153d 5b78 ce3d 6f8f b03c 9c7a 053e
00000180: 7df3 b03d 3f9e 233e 7e76 9e3d c0b8 e1ba
00000190: eb65 2e3d b443 6e3d b372 b8bc 9f95 0c3e
000001a0: 8246 663d 8b32 223e 49db 8d3d 902d 693d
000001b0: f68f df3d bb0c 063e 30d8 c43d a601 5e3e
000001c0: 8590 bd3d 6245 be3d 29f4 a73d 0a2c a23d
000001d0: 1630 963c 6c6d 9f3b b241 303e 35ea 3abc
000001e0: 3a31 853d 3bd4 2d3d 7807 dc3d cffa a63d
000001f0: f0da 40bb 722b a03d 8a2c f53d 5bf0 083e
00000200: 756c 3ebd e272 783b b443 cabd 2130 28be
00000210: 0df9 27be 8af5 5cbe 4437 07be 66e3 46bc
00000220: 0607 f1bd ab7a 01be 32ce e9bd 54aa 11be
00000230: 5691 29be bd4c a5bd a2a4 f8bd da86 2dbe
00000240: abd8 6fbe 7636 bcbd 73b6 98bd a703 39be
00000250: 417d e9bd 06ae d8bd dd67 aebd 1bd9 a1bd
00000260: 1497 57bd 185f 40be 0aa2 98bd 74cc 79bd
00000270: a039 57be 1c06 92bd 0d2c 12be 0773 febd
00000280: ee65 f4bd df63 74be be0f 81bc 4372 19bd
00000290: 7401 2ebe cdeb f6bd 9479 39bd b0c4 03be
000002a0: f72f 0bbe 34c0 22be de79 41be ba6e d6bd
000002b0: 92c2 8fbd 29b3 80bd 8102 3fbe 719f cbbd
000002c0: ee55 3fbe 57dd 293d 0b5f 6e3b 016b 02be
000002d0: 1191 d0bd 40d9 e3bc 410f a2bd 1954 0fbe
000002e0: a4f6 32be b52c 07bd 88c8 84bd 94f5 83bd
000002f0: 0062 9cbd a56a 57bd dca4 12be 2034 6abe
00000300: 02da 18be 5e1c 63bc 326f 45be 4f33 6bbe
00000310: 9b1b e7bd eadf 12bd f675 51be f4da ffbd
00000320: 03ee b2bd 5ad1 e7bd ede7 60be dc81 0cbe
00000330: 10ab 13be b457 cdbd ae07 23be 502e 1abe
00000340: 9dfb 3ebd f58e aabd f695 5bbc 2c6d 0bbe
00000350: 8a25 fbbd 537d 42be 666b 43bd 079c 6fbd
00000360: 8483 64be 489d 50be ee26 30be d587 b6bd
00000370: 3788 85bd 3d5e 2cbe b2f5 93bd 9409 3abe
00000380: 1f5e 42be 352d b5bd fd33 13be 608f 4dbe
00000390: f753 f2bd 5d05 ffbd d00b 08be 07b3 66be
000003a0: e77b 30be 2770 58be 9b24 3dbe 0546 38be
000003b0: d171 23bd 996a e9bd 1048 0dbe dbab 28bd
000003c0: 7a6b 0abe 5d42 54be e0fe f6bd 67ef 63be
000003d0: be3d eebd 42ba 37be 7615 3dbe c7f3 a5bd
000003e0: 34bf 10be ba2c 27be 098a 6abe 9a74 5cbe
000003f0: 4c2f 95bd 24fa a9bd 00f2 0f3c 234a d6bd

fc.weight f4 [38, 128]
-0.122785494 -0.031351075 0.20066398 8.187781e-06 0.12323164 -0.06305325 -0.022512859 -0.10631004
0.023713365 0.1640369 0.030701 -0.07249973 0.13940269 -0.19870348 -0.015491192 -0.10869388
0.16904229 0.039865084 -0.04047046 -0.15730822 0.12313433 0.10614286 -0.06796507 0.009664308
0.14045948 -0.159295 -0.09251692 0.103275634 -0.13947557 -0.02767213 -0.084497534 0.15680008
-0.048632145 0.19264849 0.034933772 -0.16446795 -0.12452807 -0.17273997 -0.087751515 -0.02095795
-0.059731893 0.10969362 0.07746331 0.14541072 0.13935877 0.06456859 0.18211384 -0.14647043
-0.0133958375 -0.035633598 0.11056689 -0.15450676 0.06305871 0.086071335 -0.19637588 -0.12068143
-0.032121 0.21489643 0.1476148 0.0684437 -0.15882163 -0.13774768 -0.027163532 0.20409292
0.21449028 0.10120972 0.2387576 -0.091503605 0.110144205 -0.03208297 -0.10790875 0.18511193
0.09977029 -0.02996005 -0.15631393 -0.23874469 0.04004624 -0.13371584 0.17980854 -0.18773554
-0.1220354 -0.088517815 0.053093143 -0.058276743 -0.14477262 0.21730503 -0.08813201 -0.082177415
-0.15035114 0.06897972 0.110641636 0.09826236 0.22065349 0.18999599 0.038975146 0.13128822
0.12098509 -0.06357913 0.18900083 -0.22010687 0.06220092 -0.15209264 -0.05684947 0.18143131
-0.15122773 -0.016052874 -0.1336769 0.014392722 0.12398644 0.09461492 -0.18555014 0.15974562
-0.19267769 0.10450316 -0.005526081 0.14021607 0.16008791 -0.025705833 -0.03853733 0.19574882
-0.15655644 0.051145375 0.17327346 -0.025569888 -0.06101084 0.07486009 -0.02257866 -0.12723827
0.1959216 0.035079762 0.07652541 -0.15779628 0.21327421 -0.13239072 0.16369352 -0.06521442
-0.060457025 0.13846727 0.033402037 -0.013555787 -0.1486517 0.16197242 0.15967189 -0.13615164
-0.16690318 -0.0248213 0.16051131 -0.18378137 -0.05325584 0.14388302 -0.117299184 -0.057665322
-0.065629564 0.12956692 0.20767598 0.05273576 -0.12816232 0.23290487 -0.20471056 0.17494476
0.1950877 -0.105875686 -0.20396654 0.1907107 -0.18255709 -0.024438176 -0.095474616 -0.16134694
0.14196452 0.13097358 0.123669036 -0.16941196 -0.17138366 0.2172302 0.03126136 0.17871983
-0.15760954 0.13024777 -0.11443734 -0.14175211 0.025248388 0.21338227 -0.18817143 0.0052298317
0.25099117 0.18931149 0.07537424 0.21258439 -0.18192573 -0.11705103 -0.17953296 0.017039295
0.024897538 0.039271604 -0.19370753 -0.031977743 0.012114341 -0.19838868 0.14705226 0.123012155
0.18219481 -0.15169294 -0.14137973 -0.13729669 0.118496016 -0.031475253 0.10488237 0.12639122
-0.17016262 0.08882029 0.096320555 0.16397765 0.14134571 -0.12738928 -0.20808558 -0.09612827
0.124283135 -0.0194274 0.18618326 -0.039253533 0.108551346 0.013171799 0.063640326 0.062150594
0.13672659 -0.10048904 -0.17325674 -0.008673696 -0.15110165 0.07036451 -0.111743905 -0.19024529
-0.2193669 -0.15495099 -0.19989887 -0.1981643 -0.09646251 0.043865856 -0.04720533 -0.1414239
-0.17353928 0.12167293 -0.12319394 -0.15360804 -0.09158178 -0.13900323 -0.20286779 0.012233436
0.12238621 -0.17291342 0.11832452 0.08701381 -0.09413413 0.19387312 0.13027513 -0.18174969
00000000: f676 fbbd fc69 00bd dc7a 4d3e 405e 0937
00000010: df60 fc3d 1022 81bd e36c b8bc 14b9 d9bd
00000020: 8842 c23c 4af9 273e aa80 fb3c bd7a 94bd
00000030: 94bf 0e3e ed78 4bbe c5ce 7dbc e69a debd
00000040: 6c19 2d3e 9249 233d 5ac4 25bd 6815 21be
00000050: da2d fc3d 6e61 d93d 4531 8bbd 0c57 1e3c
00000060: 9cd4 0f3e 3a1e 23be 8379 bdbd 2d82 d33d
00000070: afd2 0ebe aab0 e2bc 0b0d adbd 3390 203e
00000080: 8032 47bd a545 453e b716 0f3d 496a 28be
00000090: 9308 ffbd bfe2 30be 11b7 b3bd 02b0 abbc
000000a0: 6ea9 74bd 0ca7 e03d 15a5 9e3d 8ce6 143e
000000b0: 11b4 0e3e 893c 843d 0d7c 3a3e 58fc 15be
000000c0: 377a 5bbc 89f4 11bd e570 e23d 0537 1ebe
000000d0: ed24 813d 2b46 b03d c216 49be d327 f7bd
000000e0: 4f91 03bd cf0d 5c3e 5628 173e 362c 8c3d
000000f0: 23a2 22be ba0d 0dbe 0e86 debc bcfd 503e
00000100: 57a3 5b3e 0b47 cf3d df7c 743e 3e66 bbbd
00000110: 4993 e13d 6f69 03bd 43ff dcbd fb8d 3d3e
00000120: 5e54 cc3d c76e f5bc c210 20be 7d79 74be
00000130: 8707 243d ceec 08be bb1f 383e bf3d 40be
00000140: b2ed f9bd d448 b5bd 3278 593d 98b3 6ebd
00000150: 463f 14be 3685 5e3e 8e7e b4bd a24c a8bd
00000160: a6f5 19be 3d45 8d3d 1598 e23d c73d c93d
00000170: fdf2 613e 4f8e 423e 67a4 1f3d 6b70 063e
00000180: 08c7 f73d c635 82bd 6f89 413e b263 61be
00000190: 64c6 7e3d 2cbe 1bbe fdda 68bd 21c9 393e
000001a0: 71db 1abe 5181 83bc 99e2 08be 74cf 6b3c
000001b0: 9aec fd3d 78c5 c13d db00 3ebe 5b94 233e
000001c0: 4d4d 45be c105 d63d 2114 b5bb cd94 0f3e
000001d0: 16ee 233e 0a95 d2bc 52d9 1dbd 6172 483e
000001e0: 5550 20be d07d 513d 996e 313e f177 d1bc
000001f0: 81e6 79bd 3f50 993d e2f6 b8bc c04a 02be
00000200: ac9f 483e ccaf 0f3d 5bb9 9c3d 5995 21be
00000210: 8e64 5a3e 6f91 07be 469f 273e 238f 85bd
00000220: c9a1 77bd 5dca 0d3e 93d0 083d 1719 5ebc
00000230: 2738 18be 19dc 253e 0781 233e 566b 0bbe
00000240: abe8 2abe 0a56 cbbc 145d 243e 2f31 3cbe
00000250: cc22 5abd 1256 133e 8e3a f0bd 7932 6cbd
00000260: cb68 86bd 31ad 043e 03a9 543e 7401 583d
00000270: fc3c 03be 9d7e 6e3e a59f 51be b824 333e
00000280: 12c5 473e 5ad5 d8bd 9bdc 50be aa49 433e
00000290: 3ff0 3abe 9232 c8bc 3288 c3bd 2238 25be
000002a0: 265f 113e f01d 063e 3146 fd3d 547a 2dbe
000002b0: 337f 2fbe 9871 5e3e e90b 003d 5502 373e
000002c0: 6564 21be ac5f 053e 205e eabd 7727 11be
000002d0: b5d5 ce3c e280 5a3e 03b0 40be 025f ab3b
000002e0: ea81 803e dfda 413e cf5d 9a3d b9af 593e
000002f0: bd4a 3abe 73b8 efbd 7dd7 37be fe95 8b3c
00000300: ecf5 cb3c 43db 203d 445b 46be 18fb 02bd
00000310: 3b7b 463c 6726 4bbe de94 163e cced fb3d
00000320: 4791 3a3e 6555 1bbe d9c5 10be 8197 0cbe
00000330: 0aae f23d 32ec 00bd 91cc d63d b36c 013e
00000340: 1c3f 2ebe 6ae7 b53d b643 c53d c2e9 273e
00000350: eebc 103e 5672 02be 6314 55be e6de c4bd
00000360: 2888 fe3d 3626 9fbc d3a6 3e3e 50c8 20bd
00000370: 2b50 de3d 87ce 573c dc55 823d 9f91 7e3d
00000380: 0e02 0c3e 33cd cdbd 376a 31be 1e1c 0ebc
00000390: 64ba 1abe 451b 903d fdd9 e4bd a9cf 42be
000003a0: b7a1 60be 79ab 1ebe 4ab2 4cbe 95eb 4abe
000003b0: 238e c5bd afac 333d 605a 41bd 6dd1 10be
000003c0: 48b4 31be a82f f93d 1b4d fcbd 6d4b 1dbe
000003d0: 3a8f bbbd dd56 0ebe 93bc 4fbe c06e 483c
000003e0: 9fa5 fa3d 3710 31be 2054 f23d 4c34 b23d
000003f0: 65c9 c0bd ad86 463e d866 053e 971c 3abe

fc.bias f4 [38]
-0.042361572 0.013795281 -0.034560278 -0.013258781 -0.015482569 0.030533636 -0.09858209 -0.048303686
-0.055071037 -0.040470257 -0.058570627 0.0071459063 -0.07748307 -0.056158524 -0.012854487 0.013504583
0.04067462 -0.080613405 0.09019126 -0.051415578 0.032868735 -0.01080615 0.0715651 -0.0046781297
0.035407647 -0.021730855 0.077676356 0.108176224 -0.12703314 -0.039382335 -0.04027256 0.051020715
0.04464548 -0.037776615 -0.040431574 0.014923443 -0.07318337 -0.031297717
00000000: 5483 2dbd 9a05 623c 148f 0dbd 5c3b 59bc
00000010: 9aaa 7dbc ad21 fa3c 68e5 c9bd 16da 45bd
00000020: 2b92 61bd 24c4 25bd c1e7 6fbd 3528 ea3b
00000030: 72af 9ebd 7b06 66bd a09b 52bc 5442 5d3c
00000040: 6e9a 263d a418 a5bd 32b6 b83d 2499 52bd
00000050: 5ea1 063d 470c 31bc b990 923d ff4a 99bb
00000060: 9c07 113d e804 b2bc c814 9f3d 7f8b dd3d
00000070: fa14 02be 5f4f 21bd d7f4 24bd 19fb 503d
00000080: 2ede 363d a7bb 1abd 949b 25bd 7581 743c
00000090: 2ae1 95bd 0932 00bd
